…
    X = LSTM(128)(X)
    X = Dropout(0.5)(X)
    X = Dense(5, activation = 'softmax')(X)
    model = Model(sentence_indices, X)
    return model
     

model = Emojify_V2((maxLen,), word_to_vec_map, word_to_index)
model.summary()
     
Model: "model"
_________________________________________________________________
 Layer (type)                Output Shape              Param #   
=================================================================
 input_1 (InputLayer)        [(None, 10)]              0         
                                                                 
 embedding (Embedding)       (None, 10, 50)            20000050  
                                                                 
 lstm (LSTM)                 (None, 10, 128)           91648     
                                                                 
 dropout (Dropout)           (None, 10, 128)           0         
                                                                 
 lstm_1 (LSTM)               (None, 128)               131584    
                                                                 
 dropout_1 (Dropout)         (None, 128)               0         
                                                                 
 dense (Dense)               (None, 5)                 645       
                                                                 
=================================================================
Total params: 20223927 (77.15 MB)
Trainable params: 223877 (874.52 KB)
Non-trainable params: 20000050 (76.29 MB)
_________________________________________________________________

model.compile(loss='categorical_crossentropy', optimizer='adam', metrics=['accuracy'])
…
